Lab6/dqn.pth (torch_old, 377883 bytes, 6 tensors)

fc1.weight f4 [300, 8]
000000 e2 47 b6 be f9 27 a1 3e 42 8f 55 be 64 9e cf be
       -0.35601717 0.3147581 -0.2085543 -0.4055053
000010 8a a1 da 3e 8d c3 fc be f7 ad 1e bf f3 0c 8e 3e
       0.4270137 -0.49367943 -0.619842 0.27744254
000020 ec 7a 67 be 0e fd 07 bf d6 ad 15 bf f2 4c 0f 3f
       -0.22605485 -0.53120506 -0.5846838 0.55976784
000030 2a e2 2c 3f bf fb 07 3e 4b 9d 16 bd 1f 7b 93 3e
       0.675326 0.13279627 -0.0367711 0.2880487
000040 d8 a7 f1 bd 08 1e f4 bd c3 c2 19 3e c5 6f 06 bf
       -0.11799592 -0.119197905 0.15015702 -0.52514297
000050 2d 4c 8d bc 12 50 b8 bd 66 0d 36 bf 56 23 9b be
       -0.017248238 -0.08999647 -0.71114194 -0.30300397
000060 71 0f 29 3d 82 70 cf bc e2 4a e8 be 19 80 a2 be
       0.04127449 -0.025322203 -0.4536963 -0.31738356
000070 0e 88 05 bf df 5f 8f be bc 7a 51 3e 93 38 0c 3d
       -0.5216073 -0.2800283 0.20456976 0.03423364
000080 e3 a9 b5 3e a3 34 71 bf 13 70 b5 3b 8d d3 d9 be
       0.35481176 -0.9422094 0.005537042 -0.42544213
000090 20 3c 31 bf 2f e0 a3 be 27 49 45 be 01 01 ad 3e
       -0.6923237 -0.32006976 -0.19266187 0.33789828
0000a0 73 a9 2a 3e e0 1c 5c 3e 34 60 5f be a5 5f f2 be
       0.16666202 0.2149539 -0.21814042 -0.47338596
0000b0 21 86 fe be 54 95 fe 3d ab bf 2c 3e 23 da 5c be
       -0.49711707 0.12430826 0.1686999 -0.21567588
0000c0 25 8b 05 bf 47 9a 1b 3e 63 7e a5 3d d5 02 a0 be
       -0.5216544 0.15195571 0.08080747 -0.3125216
0000d0 b5 16 c0 3c 26 a1 af 3d e1 28 0a bf 37 11 80 3e
       0.023448328 0.085756585 -0.53968626 0.25013134
0000e0 ff 2a d1 bd bb 66 2c be 86 7b db 3e cd ef fc 3d
       -0.10213279 -0.16836064 0.42867678 0.12350426
0000f0 51 6f ba 3e db 15 e9 3e c8 a6 f0 3e 89 1f 4d be
       0.36413053 0.45524487 0.47002244 -0.20031561
000100 78 08 f8 3e 2f 00 07 bf 89 60 e8 be a0 2f e4 3c
       0.4844396 -0.52734655 -0.4538615 0.02785474
000110 af d6 b6 be d0 36 6c 3e 6d 12 69 3e 72 18 39 3e
       -0.35710666 0.23067784 0.22760935 0.18075731
000120 56 e7 a7 3e ec a4 12 be fd 39 64 3e 1d 23 00 3f
       0.32793683 -0.14320725 0.22287746 0.5005358
000130 0e 1a 9d 3e a9 71 6a 3e 3e 9d a9 3e 76 29 57 bd
       0.3068394 0.2289492 0.3312778 -0.052529775
000140 e3 bf fd 3d 57 76 cb bf 17 a5 6a 3e 60 88 48 bf
       0.12390115 -1.589549 0.2291454 -0.7833309
000150 f6 40 13 bd f3 5d 24 3c 8e 6b 98 3e 12 4d d2 bd
       -0.035950623 0.010032165 0.29769558 -0.10268606
000160 8e 7a c9 be 03 de 32 3e 32 56 d2 be c8 f6 9f 3e
       -0.39351314 0.17467503 -0.41081387 0.31242967
000170 5c 94 8e be 79 e0 84 3e 22 c8 16 3f 1b 6b 2d be
       -0.27847564 0.2595251 0.5889913 -0.16935389
000180 72 30 a3 3d fb 47 96 be e6 9b c3 3c 79 1e 1c bf
       0.079682246 -0.29351792 0.02387805 -0.60984
000190 81 b2 c0 be 4e 10 84 be dc a8 06 3e d5 ab 82 be
       -0.37636188 -0.2579369 0.13150352 -0.25521722
0001a0 db b6 13 be 69 04 8d bf d0 d3 ff 3e 70 73 2d bf
       -0.14425223 -1.1016971 0.49966288 -0.6775427
0001b0 18 9a 43 3d 61 76 02 bd 60 39 26 3e d4 e9 90 3e
       0.047754377 -0.031851176 0.16232824 0.28303397
0001c0 60 d0 7d 3d 22 7f dc bf 27 84 49 be e6 9e 1e bf
       0.0619663 -1.7226298 -0.19679318 -0.6196121
0001d0 39 38 0e 3e 45 04 79 3e ba ba 0d 3d fa 88 dd bd
       0.13888635 0.24318035 0.034601904 -0.10817142
0001e0 11 e3 0c 3e 11 93 4e bf 63 aa 0c 3f 09 59 66 bb
       0.13758494 -0.80693156 0.5494749 -0.0035148284
0001f0 1f fd fc 3d bc 67 c8 be af e9 f2 bd 6b ee 4e 3e
       0.123529665 -0.39141643 -0.11860978 0.20208137
000200 e6 a6 33 3f 32 9c 64 bf ce c5 db 3d 58 c6 a0 be
       0.7017654 -0.89300835 0.107310876 -0.31401324
000210 04 79 24 bf 8e ce 18 bd 38 fe 68 bd cc eb e5 be
       -0.64247155 -0.03730636 -0.056883067 -0.4490646
000220 67 ee 34 be 7a 13 f7 3d 95 a4 2f bf f9 f2 5f bd
       -0.17669068 0.12064262 -0.6861051 -0.054675076
000230 11 1a f3 be 40 c5 07 3f 80 66 8a bd 12 0c 96 3e
       -0.47480825 0.53035355 -0.067578316 0.29306084
000240 d6 95 b4 3d 4c fe c5 be fa 29 4f be 18 4c 9a 3d
       0.088176414 -0.38670576 -0.20230857 0.07534045
000250 4b ee a7 be fc cb b3 be ee 30 ec 3c 54 48 01 be
       -0.3279899 -0.35116565 0.028831925 -0.12625247
000260 02 3d b3 3e f1 a3 04 be 91 2a 83 3e a4 5a c3 3d
       0.35007483 -0.12953164 0.25618413 0.09538773
000270 85 ac e4 be a9 d1 b1 be 21 2c 34 bf e9 ae 80 be
       -0.44662872 -0.3473027 -0.70379835 -0.25133446
000280 d7 39 b4 3e 98 2c 54 be 32 4e 10 be fe 7c 73 3f
       0.35200378 -0.20720136 -0.14092329 0.951126
000290 cb 7d 5b bf 1a be 97 be 62 f9 d9 be 66 11 02 bf
       -0.8573882 -0.29637223 -0.42573076 -0.508078
0002a0 7b e4 7a be cb bf 21 3d 87 e2 d3 bd b7 4d 25 3d
       -0.24501221 0.03948955 -0.10345941 0.040357318
0002b0 22 9d 1a 3f 5a 81 0c 3f e8 85 09 bf 74 c6 5d be
       0.60396016 0.54884875 -0.5371995 -0.21657735
0002c0 e1 76 d2 be ff 0a ae bd 2f b9 00 3f 02 c6 8f 3f
       -0.41106322 -0.08498191 0.5028257 1.1232302
0002d0 62 54 12 bf f1 cf b4 3e e1 12 ae 3e e3 42 ba bd
       -0.5716001 0.35314897 0.33998778 -0.09094789
0002e0 99 d9 aa be a5 2b ea bf cb ba 8f bd 07 f5 32 bf
       -0.3336914 -1.8294569 -0.0701805 -0.6990513
0002f0 1d 06 b0 3e 99 c4 c8 bc cf 6f 8c 3e ea 6b 22 bd
       0.34379664 -0.024507808 0.27429053 -0.039653696
000300 26 71 90 be 27 c0 a1 bf a7 68 8d be b5 a2 65 be
       -0.28211325 -1.2636765 -0.27618906 -0.22425349
000310 39 d8 99 3e fb 75 21 3e c3 34 e9 be 65 05 95 3d
       0.30047777 0.15767662 -0.45548066 0.072764196
000320 d4 71 52 3e d6 cf 5f bf 6d 98 28 be b3 09 1b be
       0.20551234 -0.8742651 -0.16464396 -0.15140419
000330 8e 41 a7 be f8 22 a9 3e 05 16 a8 bd 14 4f d8 be
       -0.32667202 0.33034492 -0.08207325 -0.42247832
000340 7f a2 20 bd 0a 93 0b 3d 4d e7 45 3f 44 3a a4 be
       -0.03921747 0.034075774 0.7730606 -0.32075703
000350 ed 8d fe 3b de f8 2d 3e 58 2a 2b bf 0a f5 82 3e
       0.0077683837 0.16989467 -0.66861486 0.25577575
000360 5e 33 2b 3e fa 4f 38 bd 34 4e c3 bd 69 e0 3c 3f
       0.16718814 -0.044998147 -0.095364004 0.7377992
000370 f3 ff ab bf ec 8b 96 be a6 83 a4 be cd e3 8c 3d
       -1.3437485 -0.29403627 -0.3213169 0.06879387
000380 b7 59 13 be 43 e2 34 bf d9 3e 31 be 2d 00 71 bd
       -0.14389692 -0.7065775 -0.1730913 -0.05883806
000390 cb d6 91 be 4d 06 18 bf fa fd e3 3d 93 13 13 bf
       -0.28484187 -0.59384614 0.111324266 -0.5745174
0003a0 2b 76 c4 3d d8 a3 6f 3e 27 a0 5c be f3 2b 98 be
       0.09592851 0.23402345 -0.21545468 -0.2972103
0003b0 bb 91 0d bf b1 4b 87 3d 82 30 35 bf 78 c0 87 3e
       -0.5530049 0.06606234 -0.7077714 0.2651403
0003c0 d9 f6 85 bc bc 5e 9c bf bc ac 0c be 63 24 36 bf
       -0.016353058 -1.2216411 -0.13737768 -0.7114927
0003d0 d6 6b 1e 3f ab 09 f5 3d d7 20 8c bd 5a cd 35 bb
       0.61883295 0.11964735 -0.06842201 -0.0027740807
0003e0 de 03 91 3d 75 56 06 bf 6a 75 30 bf f8 b6 8e bd
       0.07080816 -0.5247567 -0.6892916 -0.06968492
0003f0 f8 e1 6c 3e f3 bc 06 bf c6 eb 5a 3c 48 05 ca 3e
       0.23133075 -0.52632064 0.013361877 0.39457154

fc1.bias f4 [300]
000000 30 15 17 be 67 79 71 3e 95 89 02 3e 4a 85 45 be
       -0.14754176 0.23581468 0.12747796 -0.19289127
000010 fa 30 d5 be 8b fd f5 3d 58 12 48 be e4 be 4e be
       -0.4163893 0.1201125 -0.19538248 -0.20190006
000020 34 d6 71 3c b8 08 07 bd 0d dc 0c be b6 65 06 bd
       0.014760543 -0.0329673 -0.13755818 -0.032811843
000030 20 05 aa be 6e 59 4c be fc 5e 63 be 7d 38 fb bc
       -0.33207035 -0.1995599 -0.22204202 -0.030666584
000040 4a bf d0 be 1f cc ba be c9 d7 24 3e 17 a4 bd 3e
       -0.40770942 -0.36483857 0.1609794 0.37039253
000050 ab 39 bb 3e 2c 4a 96 be cf 8c bf 3c 24 c6 01 be
       0.36567435 -0.29353464 0.023382572 -0.12673241
000060 7a 61 90 be ad aa ac be e5 1a 4e 3d 93 f4 2f 3b
       -0.2819937 -0.33723965 0.050318617 0.0026848658
000070 07 60 77 bb 1c a6 93 bd b4 23 e5 3d 93 73 8f be
       -0.0037746446 -0.07209417 0.111884505 -0.28017864
000080 65 77 9c 3d e8 bc ff bc 50 cc eb 39 7b 06 5e 3c
       0.0763996 -0.031218007 0.00044974918 0.01355135
000090 d1 e9 e5 3d fe 69 50 3e 55 38 64 3e 9f 7a 84 3e
       0.112262376 0.20352933 0.22287114 0.25874802
0000a0 93 02 75 3e a3 bb 37 be 01 b1 21 be 34 21 63 3e
       0.23926763 -0.17942671 -0.15790178 0.22180635
0000b0 ad 10 3d be 75 54 07 3f 80 5f 31 be 88 00 de bd
       -0.18463393 0.52863246 -0.17321587 -0.10839945
0000c0 c7 da 7b bd 9a 33 e6 bc 02 01 99 3d 57 71 a7 3c
       -0.06148794 -0.028100777 0.07470895 0.020439787
0000d0 37 ee 82 3e ec 22 ec bd d4 81 51 be 91 07 c4 be
       0.25572369 -0.11530098 -0.20459682 -0.38287023
0000e0 cf 6b a6 be 74 79 62 3d 2c 12 16 be cc 1a 05 be
       -0.32504126 0.055291608 -0.1465537 -0.12998503
0000f0 18 cb 85 be 10 37 f1 bd 08 ee 32 3d d1 03 52 3e
       -0.2613151 -0.117780805 0.043684036 0.20509268
000100 9c e5 50 bd 39 fc a2 bd a9 5d d6 bd 2c 0b 3f 3c
       -0.051000223 -0.07958264 -0.10467083 0.011660378
000110 1a f3 7d bd f9 7e 95 3e 79 ef bf 3d 4f e4 f7 3d
       -0.061999418 0.29198435 0.09371848 0.12104093
000120 0b 7f 1a 3e 3e b4 0b 3e 04 c0 3d 3e f7 13 b3 3c
       0.15087526 0.13642976 0.1853028 0.021860106
000130 d5 36 1b bd c5 c9 31 3e cc e4 13 3e 8b 93 08 be
       -0.03789409 0.17362125 0.14442748 -0.13337533
000140 a4 4c de be 93 7d 83 3d 42 4a b9 3e 8b f1 66 bd
       -0.43417847 0.06420436 0.36189467 -0.056382697
000150 9f 88 73 3e be 8e 8f 3e da 9b 67 ba 8c 53 d6 3e
       0.23782586 0.2803859 -0.00088351744 0.41860616
000160 a4 f8 e2 be d9 ef 02 3e b1 9c 7b be 74 89 aa 3d
       -0.44330323 0.12786807 -0.24571492 0.08326998
000170 e9 b3 ee bd c4 12 66 3c 6d aa ad be 0e 67 62 be
       -0.11655409 0.01404256 -0.33919087 -0.22109625
000180 34 f8 cb be ce 55 c4 3d 2e df e7 be 9e 0b cb 3d
       -0.398378 0.095866784 -0.4528746 0.09914325
000190 c9 69 94 3d 3a 88 12 be 2f 43 a2 3d ab cb 81 bd
       0.072467394 -0.14309779 0.079229705 -0.06337675
0001a0 6e 43 91 be 50 c6 14 bc 97 b6 3b bd 75 ef f9 bd
       -0.28371757 -0.0090804845 -0.045828428 -0.12203876
0001b0 96 81 f4 3d b4 93 ad be 41 98 8f bc d0 36 c1 3d
       0.11938779 -0.3390175 -0.017528655 0.09434283
0001c0 19 33 e8 3e bd 7a ab 3e d6 cd b6 be cc 0b da be
       0.45351484 0.3349208 -0.35703915 -0.42587125
0001d0 04 30 40 be 88 f4 26 3e b8 82 ba 3e b5 16 a7 bd
       -0.18768317 0.16304219 0.36427855 -0.08158628
0001e0 22 dd c5 be ad 56 ac 3e 6f a4 c5 be 29 6c b9 be
       -0.38645273 0.33659878 -0.38602015 -0.36215332
0001f0 4b d8 7a bd 52 c2 de bd a5 c1 73 be 61 78 aa be
       -0.06124143 -0.108769074 -0.23804338 -0.33294967
000200 d7 69 fb 3b 76 ea 52 3e 0c c4 1c bf 22 60 e6 3d
       0.007672529 0.20597252 -0.61236644 0.11248805
000210 71 1d 76 3c d7 7c 76 3e c2 64 98 be 23 da 36 3d
       0.015021668 0.2407106 -0.29764372 0.044641625
000220 74 a8 a4 3c d2 03 40 be d9 e9 30 3e 24 9b 97 bd
       0.020099856 -0.18751457 0.17276706 -0.074026376
000230 74 e7 23 be d0 0d 09 3e c1 8e 5e be 38 e9 86 bd
       -0.16006261 0.13384175 -0.21734144 -0.06587452
000240 7f 08 a3 bd 85 65 8b be 0a f3 f4 be c1 ab aa bd
       -0.07960605 -0.2722589 -0.47841674 -0.08333541
000250 bb c2 f8 be d9 c7 a5 bd c6 2d 3c 3e 16 f4 c8 be
       -0.48586068 -0.080947585 0.18376836 -0.39248723
000260 de c9 20 bf a6 0e 2d 3e d7 aa 22 3d 8a df 87 3c
       -0.62808025 0.16900119 0.039713707 0.016586084
000270 90 b5 40 be da a2 a6 3e aa 3a 1b bf 5a 36 ec be
       -0.1881926 0.3254612 -0.6063639 -0.46135217
000280 a5 d2 94 be fe 66 ff 3d f9 5a 3b be ce 19 f4 3d
       -0.2906696 0.12470816 -0.18296422 0.11918984
000290 c9 47 87 3e ac bf ba 3e e4 15 86 3e 7f cd a3 be
       0.26421955 0.3647436 0.26188576 -0.3199272
0002a0 c4 87 81 bd 42 79 33 bc a3 69 b3 be c8 ab 5b 3e
       -0.06324723 -0.010954203 -0.35041532 0.21452248
0002b0 f1 47 bf be e2 d7 70 bd 28 9f 05 3d 8d 99 dc be
       -0.37359574 -0.058799632 0.032622486 -0.430859
0002c0 58 a1 3f 3d d6 5c 0c 3d 98 e6 a1 be 0c b6 7d 3e
       0.04678473 0.034268223 -0.31621242 0.24776477
0002d0 a1 72 e9 bc 3f 39 02 3e 28 52 1f 3d 96 82 b2 bc
       -0.028497042 0.1271715 0.03889671 -0.021790784
0002e0 1a 97 7b 3d ca 3a 35 be 4d 1f b5 be 30 df a1 be
       0.0614234 -0.17698207 -0.35375443 -0.3161559
0002f0 7e 89 2b be 0e 6a 7a be 38 69 89 3d 19 10 18 3d
       -0.16751668 -0.24454519 0.06709522 0.037124727
000300 e4 bd 88 be bb 7a 55 be cc b6 3f 3d 16 f2 86 3d
       -0.26707375 -0.20847599 0.046805188 0.06589143
000310 27 42 76 be 85 c5 79 3d 3d 0a bc be 2e 23 1c be
       -0.24048673 0.060979385 -0.3672656 -0.15247795
000320 7b 86 dd 3d b6 0b 7b be b2 8b 76 be d4 9d c3 be
       0.10816666 -0.24516186 -0.24076727 -0.3820635
000330 67 63 a1 3e a4 cc 2c 3d 14 fc ca be 43 fb d2 be
       0.3152115 0.042187348 -0.39645445 -0.41207322
000340 74 6c bb be a6 99 66 be b3 d0 d2 be 98 9f 4d bd
       -0.3660618 -0.2251955 -0.4117485 -0.05020103
000350 21 65 a1 be 1c d7 a7 be f0 2a 0f be 55 40 76 bd
       -0.31522468 -0.32781303 -0.13981223 -0.060119946
000360 d8 47 16 be 55 ed c6 be ad 74 c6 3c d0 6e 8c be
       -0.14675844 -0.38852945 0.024225557 -0.27428293
000370 0e f9 41 be ea 58 60 3e f4 66 14 bd e3 24 5f be
       -0.18942663 0.21908918 -0.036230996 -0.21791415
000380 40 e9 d8 bd e2 9d 67 be ff f2 63 be 4b 6f ce 3d
       -0.10591364 -0.22618821 -0.22260664 0.10079821
000390 bb cd c4 be bf ae 6a be f7 fa b2 be e1 a3 39 bd
       -0.3843821 -0.22918223 -0.34957096 -0.045322303
0003a0 0d 92 e6 bd 14 c0 7a be 60 95 64 3e c5 a0 46 3e
       -0.11258326 -0.24487334 0.22322607 0.19397266
0003b0 7f de 21 3d 40 7f 93 be 2e 43 3b 3e 7b 8d 19 bd
       0.03951883 -0.28808022 0.18287346 -0.037488442
0003c0 ce 91 58 bc 53 9c 9e be e9 9d a2 3e 9f e3 c6 3b
       -0.013218356 -0.3097864 0.317611 0.006069615
0003d0 5a 31 9c be 3a 20 0f bf 50 e0 88 bd 4c 11 fa 3c
       -0.30506402 -0.5590855 -0.06683409 0.030525826
0003e0 0a 48 49 3e 53 c9 90 3e c5 d0 57 be e8 c2 b2 bd
       0.19656387 0.28278598 -0.21075733 -0.08728582
0003f0 87 63 90 bd a4 2a 05 be 5e bb 4a bd dd 35 f1 3d
       -0.07050233 -0.13004547 -0.049495094 0.11777852

fc2.weight f4 [300, 300]
000000 91 44 a5 bc 78 e0 5d bf ef 7b ac bd d3 d1 8b 3c
       -0.020174297 -0.8667064 -0.08422076 0.017067825
000010 22 6c 17 3e 2e 3d 49 3e 03 d0 c1 3d 55 44 9b 3d
       0.14787343 0.19652244 0.09463503 0.07581393
000020 f5 28 36 3d 52 ac 3c be 8d 35 f3 3e 0f 15 00 bf
       0.044472653 -0.1842511 0.47501794 -0.5003213
000030 fc 49 fb 3d e0 6d 26 3e ae e5 11 3f 3b dc 58 3e
       0.12269971 0.16252851 0.5699109 0.21177761
000040 cc b4 94 3e 09 30 a0 be de 9b a9 3d 6d 44 0e 3e
       0.29044187 -0.31286648 0.082816824 0.1389329
000050 00 05 98 3d 67 14 16 3e ce f2 e9 be 80 7c dc 3e
       0.07422829 0.1465622 -0.45693058 0.43063736
000060 8b 8a 0f 3f 7d e2 82 be 8c 95 21 3e f5 15 6d bc
       0.56070775 -0.25563422 0.15779704 -0.014470567
000070 f4 ed cc be 89 62 3d 3d ef a5 ee 3e f8 55 4b 3d
       -0.40025294 0.04623655 0.46610972 0.049642533
000080 89 9e 56 be 18 a0 c9 3e fc c2 26 3e 13 ea 23 be
       -0.20958914 0.39379954 0.16285318 -0.16007261
000090 92 46 d2 be 75 8b 06 be 67 28 78 3e 31 78 c4 3a
       -0.41069466 -0.13139136 0.24234162 0.0014989433
0000a0 4c 72 6b 3d 48 03 10 3f df 68 6b be e7 8f 47 bc
       0.05748205 0.56255007 -0.22989224 -0.012180305
0000b0 5d 23 a1 be 81 4c 14 3e 8b d2 0d 3e 11 c8 6a bd
       -0.31472293 0.14482309 0.13849847 -0.057319704
0000c0 d4 45 92 be 12 72 09 3d 2b 77 19 3e 76 d2 0c be
       -0.285689 0.03355605 0.14986865 -0.1375216
0000d0 6f 4c a6 3e b8 ed 13 be 0c 28 98 be 06 c3 a4 3e
       0.3248019 -0.14446151 -0.29718053 0.3218004
0000e0 74 97 ca be 58 68 63 3b 24 64 b3 3e 67 ff 95 3d
       -0.39568675 0.0034699645 0.3503734 0.07324105
0000f0 51 ea 28 3e a3 ea cb 3e 00 e8 e5 bd 5c dc 57 b9
       0.16495635 0.3982745 -0.11225891 -0.00020586088
000100 de 66 c3 3d fe 7e a2 be ea 1a e0 3d 7b 49 2f 3d
       0.09541105 -0.31737512 0.109426335 0.042794686
000110 18 06 e6 3d 95 e3 22 bf 13 10 76 3d b6 d2 e0 3d
       0.11231631 -0.6362851 0.060073923 0.1097769
000120 d5 37 ce 3e 96 3f 3f be a0 c5 48 bc 6f fa 08 be
       0.4027697 -0.186766 -0.012254149 -0.13376783
000130 05 91 9c be 36 89 81 3d 9a 9c ba b9 0f 3c b7 3e
       -0.3057939 0.06324999 -0.00035593362 0.3578801
000140 7a ca 1e be f2 11 52 3e 1a 96 42 3d 3d 47 a3 3e
       -0.15506926 0.20514658 0.04750643 0.31890288
000150 7c fc dd 3d b3 f7 86 bd 37 d6 b9 be 5a 49 bc be
       0.10839173 -0.065902136 -0.36296245 -0.36774713
000160 78 86 3b be 0a 22 bb 3e 75 0e 73 bf 16 fc c1 3e
       -0.18313015 0.36549407 -0.94943935 0.3788764
000170 56 99 83 3e 70 83 48 3e 2b 3b 7f be 61 8f be be
       0.25702924 0.1958139 -0.24924915 -0.37218764
000180 87 f8 88 bd 43 8d 0b bf ac 74 4f be dc 38 34 3d
       -0.06688028 -0.54512423 -0.2025935 0.043999538
000190 20 9b d2 3e e6 82 7e be 4b 42 2c 3d eb 7e 4c bd
       0.41133976 -0.24854621 0.04205541 -0.049925726
0001a0 5d 9c 67 bd 46 f2 5c 3e 85 23 2d be 98 98 b6 3a
       -0.056545604 0.21576795 -0.16908081 0.0013930975
0001b0 4e b9 ca be 0f a5 0b be f5 06 03 3e e2 d1 3a bd
       -0.395945 -0.13637184 0.12795623 -0.045610316
0001c0 f0 39 1f 3e 63 8e 22 3d fe f4 f7 be 8f 7e b2 3e
       0.15549445 0.03968657 -0.48429102 0.34862182
0001d0 00 66 6f bd ef 27 03 3e db 61 20 bb 44 a7 e2 be
       -0.058446884 0.12808202 -0.002447239 -0.4426824
0001e0 ab cd 05 be 5e d0 bb 3d 5d 7b 95 3d 4e 5c 81 be
       -0.13066737 0.09170602 0.0729892 -0.25265735
0001f0 7a aa b3 3e 09 af 99 3e 0d 85 bc 3d 01 c5 91 3e
       0.35091 0.30016354 0.09205065 0.28470615
000200 76 e1 6d bd 93 7c 87 bd 10 27 b2 be 6e c7 86 3d
       -0.058076344 -0.066155575 -0.34795427 0.06581007
000210 6b 83 bd bd 76 f7 a4 3e c8 ab d8 be fa a5 c0 bd
       -0.092535816 0.32220048 -0.4231856 -0.094066575
000220 30 7e b5 be ac 3e a5 3e 2b d8 70 bd 94 dc ee 3d
       -0.35447836 0.32274377 -0.058799904 0.11663166
000230 b7 66 63 3e eb 06 20 3e e1 6d d0 bc db b7 e2 bd
       0.22207151 0.15627639 -0.02544302 -0.11070224
000240 2b e4 2b bf 9a 33 19 3f e2 cd 18 bd d5 32 5a bf
       -0.6714503 0.5984436 -0.03730572 -0.85233814
000250 76 57 8b be 2e 39 08 bf 02 c6 76 3e fe 13 94 bd
       -0.27215165 -0.5321225 0.24098971 -0.07230376
000260 39 41 44 3e f6 99 55 3e 1f f4 64 3e 38 3b ca bb
       0.19165505 0.20859513 0.2235875 -0.00617161
000270 e6 0d 2c 3e a4 fb 95 3d b9 66 ca be 3e b8 23 bd
       0.16802177 0.07323387 -0.39531496 -0.03997063
000280 45 ea 51 3d 0a b6 80 3e ad bd 9c 3e fb e7 61 bf
       0.051248807 0.25138885 0.3061346 -0.882446
000290 cb 93 84 3e d2 c8 a2 be c8 55 d6 3d 0f ad 56 bf
       0.25894007 -0.3179384 0.1046558 -0.83857816
0002a0 cc 23 75 3d 31 44 35 3e a0 bc 39 bf 46 4e db 3a
       0.05984859 0.17701794 -0.72553444 0.0016731701
0002b0 b3 4f b8 3d 91 83 0d bf 1a 43 64 bd e0 77 89 3e
       0.089995764 -0.5527888 -0.055728056 0.2684927
0002c0 bb 4d b2 be 95 ff 7f be 46 c9 8a 3e 7e 7b 05 3d
       -0.3482493 -0.2499984 0.27106684 0.032588474
0002d0 c4 86 b2 3c 22 30 ab 3d 33 be 83 be 3d 85 89 bd
       0.021792777 0.0835879 -0.25731048 -0.06714866
0002e0 0e d1 dc 3d 65 20 87 3d a9 fd 74 3e da e4 dd bd
       0.107820615 0.06597976 0.23924889 -0.108346656
0002f0 b5 fa 33 3e b2 d4 21 bd 17 b3 8d be fd d5 df 3e
       0.17576106 -0.039509483 -0.27675697 0.43717948
000300 3b e3 16 3e e8 d2 16 bf ca 90 f7 3d c7 2e c3 bd
       0.14735119 -0.5891557 0.12088163 -0.095304064
000310 35 7d fe 3d 80 c6 c3 3e 8a c4 47 bd 33 9d f5 3e
       0.12426225 0.3823738 -0.04877142 0.47971496
000320 e7 23 91 be 65 3e 80 be 8e 5f ac be e4 99 b6 3d
       -0.28347704 -0.25047603 -0.33666652 0.08916071
000330 79 20 7e 3d e5 01 af bd 29 f2 0e be b1 1b ba be
       0.062042687 -0.08545283 -0.13959564 -0.36349252
000340 85 3d 63 3e 1f 6b c9 be 78 c3 67 3d ab b9 39 3e
       0.22191437 -0.3933954 0.056582898 0.18137233
000350 6a 0c 5e 3d 74 8e d5 be 49 c6 69 3e 2f 84 11 bd
       0.054211058 -0.41710246 0.22829546 -0.03552645
000360 f9 68 7f bf cb b6 e3 be c6 cd 87 be d3 90 47 3e
       -0.9976955 -0.44475397 -0.2652418 0.1948884
000370 ec 78 28 bf 9d 64 46 3c 15 16 2e 3e e5 e7 1d 3e
       -0.6580951 0.012108949 0.17000611 0.15420492
000380 32 31 26 3e e6 6f 22 3f f0 8f 5e 3e 5d 6d 98 be
       0.16229704 0.63451993 0.21734595 -0.29770938
000390 bc 5e 0c 3e 0c bb a1 3e 64 ca cb bc ca a0 14 3d
       0.13708013 0.31588018 -0.02487678 0.036286153
0003a0 5a ca 0d bf 79 dd f9 be 5f fa 09 be 64 0d b1 bc
       -0.5538689 -0.48801783 -0.13474415 -0.02161283
0003b0 60 eb 4a 3f 33 5b 4a 3e 3f f2 66 3e 09 16 93 3e
       0.79265404 0.19761352 0.22553347 0.2872775
0003c0 83 37 f4 bd 55 3e 0c 3d fd 9a d8 bd 3c ea 18 bf
       -0.119246505 0.034239132 -0.10576437 -0.59732413
0003d0 10 69 0b 3e 6f 09 0a bf a8 c7 06 be 87 3a ba 3d
       0.13614297 -0.53920645 -0.131621 0.090931945
0003e0 3b 82 cf bc 03 4d 46 3e 10 07 45 3e db 3d ba be
       -0.025330653 0.19365315 0.19240975 -0.36375317
0003f0 e1 66 55 be 8c 37 54 3e f8 2d ec 3d 53 12 be be
       -0.20840026 0.20724314 0.11532205 -0.37123355

fc2.bias f4 [300]
000000 96 07 26 3e e9 95 4b bd 91 4b 36 bd c3 29 b3 3d
       0.16213831 -0.049703512 -0.04450566 0.087482
000010 98 73 1c 3e 22 41 c2 bc af 8f 06 bc d6 d7 ff 3d
       0.1527847 -0.023712698 -0.008212968 0.12492339
000020 4e 86 12 3d 16 10 c3 bd fa b2 e8 3d 81 26 d3 3d
       0.035772614 -0.095245525 0.11362262 0.103100784
000030 d1 0f 53 bd a1 27 fd bb 5f 31 53 bd f2 73 ec 3d
       -0.051528756 -0.0077256714 -0.051560756 0.11545552
000040 df 66 f8 bd 3f 77 1e be c1 a9 9b 3d e7 c4 27 bd
       -0.12128996 -0.15475176 0.07600737 -0.040959265
000050 eb 82 e6 3c 66 27 ce bd eb 40 eb 3c 01 27 16 bd
       0.028138598 -0.100661084 0.028717479 -0.03665829
000060 e6 54 74 bd 49 ec 3c bd 64 d4 92 3e 7c 26 7c bd
       -0.059651278 -0.046123777 0.28677666 -0.06156014
000070 31 47 2d be 69 83 b2 bd 04 80 1d 3e 46 85 29 3d
       -0.16921689 -0.08716471 0.15380865 0.041386865
000080 98 5e 5b bd 3c 73 d1 3d 23 7f 4c bd 6e 56 5d 3e
       -0.05355701 0.10227057 -0.049925935 0.21615002
000090 a1 de 11 be 79 7f 0d bc 56 20 53 3d 64 63 78 3c
       -0.14245082 -0.008636349 0.05154451 0.015160415
0000a0 e1 a8 69 3c ec 60 1c 3d 9e 9e c2 bd 2d 25 a3 bd
       0.014261455 0.03817837 -0.0950291 -0.07966075
0000b0 d7 93 7b 3d 4d 40 36 3c ff 3c 5e bd 87 2a 51 bd
       0.061420288 0.011123729 -0.05425739 -0.051065948
0000c0 de 7a 6a 3e 9e d7 b3 3d 3f 4d 81 bb 38 1b f8 3d
       0.22898433 0.0878136 -0.003945976 0.121145666
0000d0 65 6c 8b bd 87 a6 3b bd 15 ff 2e bb a2 a0 0d bd
       -0.06807784 -0.04581311 -0.0026702334 -0.03457702
0000e0 df 92 cb 3c 81 62 0f be 66 19 00 3e ea d5 70 bd
       0.024850307 -0.1400242 0.12509689 -0.058797754
0000f0 42 ec cd 3c b6 1f 95 bd 8e 82 3e 3e d2 95 e1 bd
       0.02513707 -0.07281439 0.1860449 -0.11014904
000100 bb 48 18 be 3d 89 65 bc 98 ff 2e 3e e1 df 76 3b
       -0.14871494 -0.014009771 0.17089689 0.0037670063
000110 d4 a2 ae 3c 4e 2f 95 bd 1f f9 20 bc 1e 7f ac bd
       0.021317877 -0.07284413 -0.00982502 -0.08422683
000120 e3 f7 52 3e 85 18 14 3e 8b d5 5f be 38 c8 7d bd
       0.20602374 0.14462478 -0.21858804 -0.06195852
000130 aa 68 3b bd 07 a1 0e 3e 09 da 3d 3d 2d ba a6 3d
       -0.045754112 0.13928615 0.046350513 0.08140979
000140 ad 70 be bc ba 45 0d bd 1b e3 0c bd ee ad b9 3d
       -0.023247087 -0.034490325 -0.034396272 0.090663776
000150 4a 48 b6 3d 1a c6 4b 3e 97 a7 2e bd 1b fa 26 3e
       0.08900507 0.19899788 -0.042640295 0.16306345
000160 e0 a6 ed 3d 98 7a 79 bd d4 79 39 3d 8f 61 63 3c
       0.116040945 -0.06090793 0.0452822 0.01387824
000170 4c f2 2f be 38 95 cc 3d c5 41 68 bd 82 23 33 3e
       -0.17182273 0.09989399 -0.056703348 0.17494014
000180 e2 51 e0 bb ca 6f d9 bc 65 23 a8 3b f9 82 50 bc
       -0.0068456987 -0.026542563 0.0051311725 -0.012726539
000190 76 f5 a7 bd 53 df 65 bd 0c 92 7e 3b 83 be 82 3d
       -0.08201115 -0.05612118 0.0038844375 0.063839935
0001a0 b8 4a 8d bd 1a 6b 34 bd aa 2b 37 be 16 30 2c 3c
       -0.06899017 -0.044047453 -0.1788775 0.010509511
0001b0 66 62 35 bd 38 af 2a bd 51 94 c5 3c e2 10 2a 3d
       -0.044283293 -0.041671008 0.024118574 0.041520007
0001c0 76 47 1a 3d 4b 6d 82 bd 40 39 a6 3c 5f bc a4 bc
       0.037665807 -0.06368502 0.02029097 -0.020109354
0001d0 c0 8f 06 bd 96 2f 3d 3e bc 5a e7 bd af 65 3c bd
       -0.032851934 0.18475184 -0.11296603 -0.04599541
0001e0 6d 7d 46 3b 23 4c df bd 60 01 5d bd 00 0a 38 bd
       0.0030287162 -0.10903194 -0.05395639 -0.04493141
0001f0 8b 78 bf 3c 64 ca 7a bd da 70 8b 3d c2 90 47 3d
       0.023372909 -0.06122817 0.06808634 0.048722036
000200 68 26 ad 3d b2 4e 10 bd 64 31 41 bd bb a8 24 be
       0.08454591 -0.0352313 -0.047166243 -0.1607999
000210 69 5c 5b bd 20 dd 3d 3d 38 fc dd bc 34 53 a9 bd
       -0.053554926 0.04635346 -0.027097806 -0.08267823
000220 4c 2c 7e bc ff 5e 1c be 9f 21 94 3d 6f 24 29 3d
       -0.015513491 -0.15270613 0.07232975 0.04129451
000230 b2 35 a4 3d 74 8d 8f 3c 3d 58 0c bd 76 cb c1 bd
       0.08018054 0.017523505 -0.034263838 -0.09462635
000240 d4 3a 93 bd ef 97 c3 bd 4e 52 73 bc 8e a5 a7 3c
       -0.07188955 -0.095504634 -0.014851166 0.020464685
000250 e2 bc a1 bc 32 73 1d 3c f5 4e c4 bb 72 d7 69 bd
       -0.019743387 0.009609984 -0.0059908577 -0.05709023
000260 a4 98 1c bd 34 13 40 3d 63 3c ef bb 5e b3 43 3e
       -0.038231507 0.046893314 -0.0073009 0.19111392
000270 26 22 d4 3c 34 1a 80 bd fa d4 5b bd 11 79 b7 bc
       0.02589519 -0.06254998 -0.053669907 -0.022396596
000280 7f 76 86 3c 24 2e fd bd b1 1a 0c 3c 1e a4 e1 3d
       0.016413925 -0.12362316 0.008551286 0.11017631
000290 f6 af df bc 37 f2 9d bd 00 0d 42 bb 26 48 b2 bb
       -0.027305584 -0.077122144 -0.00296098 -0.0054407297
0002a0 f4 ec a0 bd 1d 97 fc bc 35 6d a4 bb c8 7b d4 3d
       -0.07857695 -0.030833775 -0.0050179013 0.10375172
0002b0 0c 11 cf 3a 32 4b 5e bd f6 ad 93 bd 04 ac 11 3e
       0.0015797927 -0.05427093 -0.07210915 0.14225775
0002c0 c7 23 5a 3c e1 b7 b9 bd f2 85 93 3d 06 00 f6 bc
       0.013314194 -0.09068275 0.072032824 -0.030029308
0002d0 16 da 71 bd 45 66 8d 3d 3a 0a 49 3d 49 79 f0 bd
       -0.059045874 0.06904272 0.04908202 -0.11741883
0002e0 19 a9 95 3d d4 b0 93 3e cb ec 04 be 84 d1 21 bd
       0.073076434 0.28845847 -0.12980954 -0.03950645
0002f0 3d 55 89 3c d6 30 bd bd 14 ea 96 bd b6 37 96 3c
       0.016764278 -0.0923783 -0.073688656 0.018337112
000300 2d b6 a0 bd 58 7e a0 bc 6a 32 a7 3d 31 44 df 3c
       -0.07847247 -0.019591495 0.081639126 0.027254196
000310 a9 82 13 3e 6f 45 a4 3d f7 38 84 bd 2c 2b c7 3c
       0.14405312 0.08021056 -0.06456178 0.024312578
000320 e6 d1 65 bd b3 bd 5b bd ed 53 28 3e 94 68 88 3e
       -0.056108378 -0.05364771 0.16438265 0.26642287
000330 d6 f0 5f bd 10 1f 13 3c 22 34 e7 3d 8e 26 0a 3d
       -0.05467304 0.008979574 0.112892404 0.033728175
000340 d2 c0 82 bd d4 8c 51 bd 7d 42 15 bd d1 ee c9 bb
       -0.06384434 -0.051159695 -0.03644036 -0.0061625023
000350 38 0f 2e be 2a 60 cb 3b 04 7d 7c bd 10 3e 8e 3c
       -0.16997993 0.006206532 -0.06164266 0.017363578
000360 99 40 e7 bd 4e d4 c6 3c f5 ca 17 3e 11 79 51 bc
       -0.11291618 0.024271157 0.14823516 -0.012785212
000370 6b 0e 2b 3d 67 a6 e1 bd b1 51 af bd 82 40 ea bc
       0.041761797 -0.11018067 -0.08560503 -0.028595213
000380 92 1e d4 bc d2 e6 b4 bd cf 14 a6 bd a1 c3 87 bb
       -0.025893483 -0.08833088 -0.08109438 -0.004143194
000390 1e 0f 85 bd 98 e8 41 be b1 e8 7c ba 12 b7 37 3c
       -0.06497024 -0.18936384 -0.0009647711 0.011213081
0003a0 8f 1d 8f bd 36 d9 4f bd 43 4e 90 bc 57 5d c9 3d
       -0.0698806 -0.050744258 -0.017615443 0.09832256
0003b0 83 9a ca bd b7 97 f0 3d 42 2d a3 bc 00 3f cf 3b
       -0.09892752 0.11747687 -0.019919042 0.006324649
0003c0 26 cd 14 bd b2 a9 1a 3d 42 73 07 3e d1 a9 c3 bd
       -0.036328457 0.03775949 0.13227561 -0.09553874
0003d0 a8 6f a9 bd 89 bb e8 3c ac 62 37 bd eb 06 2c 3e
       -0.0827325 0.028409736 -0.044771835 0.16799514
0003e0 dd 77 88 bd 1c 8d 60 bd f1 2e 9c bd b0 49 db 3d
       -0.06663487 -0.054822072 -0.07626141 0.10707414
0003f0 9b 6c 0d bc 24 b6 1e 3e 2a 4c b9 bd 27 87 28 3e
       -0.008631851 0.15499169 -0.0904773 0.16457807

fc3.weight f4 [4, 300]
000000 14 37 cd be ac 5a 6d be 13 7c 21 bf 09 cf 30 3e
       -0.40081084 -0.2317912 -0.6307995 0.17266478
000010 d1 8e 1f bf 51 b0 bc 3e 87 cf ed ba 4f 8a 30 3e
       -0.62327296 0.3685327 -0.0018143513 0.1724026
000020 6d 27 8d bd 7d 59 b2 bd 96 1c ca 3e 19 45 c2 3e
       -0.068922855 -0.08708475 0.39474934 0.37943342
000030 f9 04 22 3f 6a 35 1c 3d f2 d3 2d 3a d4 d5 59 3e
       0.6328884 0.038136877 0.00066310086 0.21272975
000040 09 43 4b bd ee 8d 86 be ff db 02 3f 67 66 5c bd
       -0.049624477 -0.2628016 0.5111694 -0.053808596
000050 7b 13 b1 bd 4d 36 86 bc 7c 22 07 be 66 ef 77 bc
       -0.08646294 -0.016383315 -0.13196748 -0.015132761
000060 24 66 d9 3c 00 47 e3 bc 28 0d 57 3e 73 54 1b 3e
       0.026537962 -0.027743816 0.21001112 0.15168934
000070 50 40 e8 3e 68 08 8b be 67 89 db 3d 20 e5 20 be
       0.45361567 -0.2715485 0.10719567 -0.15712404
000080 f9 19 1b 3c c1 90 6b 3e 74 64 bc bd c3 3a 8f 3e
       0.009466642 0.23004438 -0.091988474 0.2797452
000090 55 50 62 bd be 9f 97 bc b2 8e 48 be 9b 00 da be
       -0.05525239 -0.018508788 -0.19585684 -0.42578587
0000a0 51 87 57 bd f1 8d f1 be 8f 20 c4 bd 83 af 6a be
       -0.052619282 -0.47178605 -0.095765226 -0.22918515
0000b0 0f 61 b4 3e 91 9c d3 be 9e 70 36 3f 7e 56 a6 be
       0.352303 -0.41330388 0.7126559 -0.32487863
0000c0 fc be 86 be 33 df bc 3d 4f 1a 9a 3d f5 03 a0 3e
       -0.26317585 0.09222259 0.07524549 0.3125302
0000d0 10 e1 b6 3c a4 9c 1d 3d 2e cb 34 3e 0e ed 1b bd
       0.022324115 0.038479462 0.17655632 -0.03806787
0000e0 aa 26 ba bd d3 e6 5e be 12 73 63 3e a3 a8 8e be
       -0.09089406 -0.2176774 0.22211865 -0.27863035
0000f0 4d 33 eb 3e b3 1b c7 bd e5 88 b0 be ff 52 b5 be
       0.45937577 -0.0972208 -0.34479442 -0.35414883
000100 9b d7 9b be c5 1a 3b be 0c 52 53 be 83 b5 ba be
       -0.3043793 -0.1827193 -0.20636767 -0.36466607
000110 c0 c8 15 bd fc 48 29 be 99 66 1d bd 54 83 4a be
       -0.036568403 -0.16531748 -0.038427923 -0.1977666
000120 88 29 29 3e 9c dd e3 3d 1f 57 4f be 44 06 11 bd
       0.16519749 0.11126253 -0.20248078 -0.035406366
000130 78 81 bb 3c 36 9b cd 3e ad 60 6d be 82 51 d6 3e
       0.022888884 0.4015748 -0.2318141 0.4185906
000140 72 b7 12 bd bc a5 d9 bc 0f 62 9c bd 81 ff 3a 3d
       -0.03581948 -0.026568286 -0.07635891 0.045653824
000150 de 9c b7 be f7 e6 85 3d 5f 91 f3 bd e9 31 cd 3c
       -0.35861868 0.06538194 -0.11892962 0.025048213
000160 68 eb be 3e 2c c9 7a bc 8b 9b 2f 3e 09 92 fa bb
       0.37288976 -0.015306752 0.17149179 -0.0076468033
000170 21 f0 d1 3e b0 67 0d 3d c9 3f ad bb 1b f9 38 3e
       0.41003516 0.034522712 -0.005287145 0.18063776
000180 3b 4a fe bd c6 14 0a ba c4 36 2f be 66 3f ce 3e
       -0.12416502 -0.0005267378 -0.17110735 0.40282744
000190 46 9f 48 3c b1 ec 60 bd 9c e1 94 3e 78 d9 f0 be
       0.012245005 -0.054913227 0.29078376 -0.47040915
0001a0 87 7d ac 3b f5 02 37 3c 0f 82 27 be 14 14 53 3d
       0.0052639875 0.011170139 -0.16358207 0.05153282
0001b0 99 4b fc 3d c5 f7 e8 bc 4b 02 f1 bc 07 77 43 bd
       0.123191066 -0.028438458 -0.029420039 -0.047720935
0001c0 12 33 ca be f1 6a f0 bd 0e bb d8 bc de 26 d7 bc
       -0.3949209 -0.117391475 -0.026456382 -0.02626365
0001d0 e6 d3 02 3d dc 35 1f 3e e4 50 7f bc 9a 7e ed 3d
       0.031940363 0.1554789 -0.015583251 0.11596413
0001e0 ac 6d 1b bd da 67 25 bd ab 17 c9 bc d2 59 17 bc
       -0.037946388 -0.040382244 -0.024547419 -0.009237723
0001f0 13 e0 cc bd 50 8e 7b bd 61 21 cc be a6 c9 cd 3d
       -0.10003676 -0.061415017 -0.39869216 0.10048227
000200 97 cb a6 3b 37 cc 16 be 74 97 db bd 50 dc 5b be
       0.005090188 -0.1472634 -0.10722247 -0.21470761
000210 8f e1 0b be 00 c8 57 be 8b 38 9c 3c 23 c8 5e 3e
       -0.13660263 -0.21072388 0.01906993 0.21756034
000220 cd 18 a1 be 9a 97 a6 bc 7b d6 9b bd b8 3f 49 be
       -0.31464234 -0.020335961 -0.07609268 -0.19653213
000230 b5 e6 13 3e 01 82 a0 3b 57 10 81 3d 1f 15 67 3d
       0.14443476 0.00489831 0.06301945 0.056416627
000240 49 67 a5 3c e9 42 b8 bd 93 bb 7f 3d 41 41 a3 bc
       0.020190852 -0.08997137 0.062434744 -0.019928576
000250 2a fb 22 3d b7 7c ca be 47 e6 d4 bd b1 3c 3a bd
       0.03979031 -0.39548275 -0.103954844 -0.045468036
000260 8b 51 8b 3d c3 d1 14 be a2 13 dc bc 61 a0 b5 3e
       0.068026625 -0.14533143 -0.02686483 0.35473922
000270 c8 0f 3d bd 7d 67 52 3b 95 26 65 3d 04 68 69 3a
       -0.04615763 0.003210514 0.055944998 0.0008903744
000280 2c 48 65 bd 2d b8 6d be 4b ae cc 3e 7c aa 5f be
       -0.05597703 -0.23214789 0.39976725 -0.21842378
000290 2f 12 eb 3a 69 65 5f 3d 69 3b 59 bd 39 af 75 be
       0.0017934496 0.05454007 -0.053035174 -0.23992623
0002a0 4d 5e 58 bc 15 83 09 bd b5 43 75 3e 7f 9e 92 bd
       -0.013206077 -0.033572275 0.2395161 -0.07159137
0002b0 77 e9 0d bc 91 6a c8 3d f7 4b f2 3d 85 ad b7 3e
       -0.008661619 0.09785951 0.118308954 0.35874572
0002c0 83 72 88 be 2e 91 3a bc 3b 30 b1 3e 00 12 82 bd
       -0.26649866 -0.011387153 0.3460711 -0.063510895
0002d0 12 13 36 3f e4 83 e6 3e 2a 45 48 be c0 f2 83 be
       0.7112285 0.450225 -0.19557634 -0.2577114
0002e0 7d c1 41 3e d2 dd b5 3e dd bc 97 be c9 65 1a 3e
       0.18921466 0.35520798 -0.2963628 0.1507789
0002f0 3b 26 53 be 48 c2 84 be 61 08 95 be 23 e2 26 3f
       -0.20620053 -0.25929475 -0.29107955 0.6518881
000300 34 73 55 bd 45 e1 db 3d ac 8e b7 be ea 75 4d be
       -0.05211182 0.10736326 -0.35851038 -0.20064512
000310 3c 95 ac be 05 a5 47 3e 00 b9 19 bd 62 e0 3d be
       -0.33707607 0.19496544 -0.037529945 -0.18542627
000320 90 7e 54 3c 40 19 19 bc b8 66 6d 3e 24 fa ce 3e
       0.012969628 -0.009344399 0.23183715 0.40425217
000330 fc 7b 24 bc 05 4c 29 3d cb 52 cb 3e 65 ed 04 be
       -0.010039326 0.041332263 0.39711604 -0.12981184
000340 30 8b 09 3b 8e 18 85 3d 64 af d0 3c d7 94 c8 3c
       0.0020987503 0.06498824 0.025474258 0.024485035
000350 e0 e1 0a 3e 4c 0f 8c bd a3 c5 74 be 83 72 04 bd
       0.13562727 -0.06838855 -0.23903517 -0.03233577
000360 75 0d e6 3d 31 98 ce 3c d8 d8 7d 3e dc d4 05 bc
       0.112330355 0.025219055 0.2478975 -0.008168425
000370 71 e3 e6 3c 78 84 22 bd 78 99 da bd c5 51 fe be
       0.028184624 -0.039677113 -0.10673803 -0.4967176
000380 3a b0 28 3d 0d 13 ca bc 3a 9a a2 bd 8c e9 96 3e
       0.041183688 -0.024667287 -0.07939573 0.29475057
000390 78 2d 45 3e d7 c1 69 be 4d b2 a3 3e b0 77 da bc
       0.19255626 -0.2282785 0.3197197 -0.0266684
0003a0 54 b1 50 3d f5 4a 51 3e 0f 96 07 3d e8 8e 2d 3e
       0.050950363 0.2043875 0.03310209 0.16949046
0003b0 2e 23 02 3e 1b f8 ee bd a4 f6 3c bc be 4c b6 3e
       0.12708732 -0.11668416 -0.011533413 0.35605425
0003c0 90 bd 7d 3c 14 7f 9c bc 34 1e 88 be a8 93 8e 3b
       0.01548709 -0.019103564 -0.26585543 0.004351098
0003d0 c2 2e 53 bd b8 b9 00 bd 7e d8 f5 3c ee 4b 80 3e
       -0.051558264 -0.031427115 0.030010458 0.2505793
0003e0 83 d9 14 3d a3 7a dd 3c 0e 37 2d bd 4a aa a5 3e
       0.036340248 0.027036017 -0.042288832 0.32356483
0003f0 22 0a 60 bd fc 5f 86 3e aa c3 0d 3f 2e 6b 7d 3e
       -0.054697163 0.26245105 0.55376685 0.24747917

fc3.bias f4 [4]
000000 cc 08 fa 3d 7b 49 f1 3c 8e 4c 96 3d 15 53 e9 3a
       0.12208709 0.029453984 0.073388204 0.001780125
